…
ion_count":10,"metadata":{"colab":{"base_uri":"https://localhost:8080/"},"executionInfo":{"elapsed":343,"status":"ok","timestamp":1733863127284,"user":{"displayName":"Алексей Птицын","userId":"11435283574921835370"},"user_tz":-180},"id":"LmYx6AeQU1lB","outputId":"e3c3453e-c311-4eed-c8da-44302976897e"},"outputs":[{"name":"stdout","output_type":"stream","text":["----------------------------------------------------------------\n","        Layer (type)               Output Shape         Param #\n","================================================================\n","            Conv2d-1           [-1, 64, 64, 64]           1,792\n","       BatchNorm2d-2           [-1, 64, 64, 64]             128\n","              ReLU-3           [-1, 64, 64, 64]               0\n","         Dropout2d-4           [-1, 64, 64, 64]               0\n","         MaxPool2d-5           [-1, 64, 32, 32]               0\n","            Conv2d-6          [-1, 128, 32, 32]          73,856\n","       BatchNorm2d-7          [-1, 128, 32, 32]             256\n","              ReLU-8          [-1, 128, 32, 32]               0\n","         Dropout2d-9          [-1, 128, 32, 32]               0\n","        MaxPool2d-10          [-1, 128, 16, 16]               0\n","           Conv2d-11          [-1, 256, 16, 16]         295,168\n","      BatchNorm2d-12          [-1, 256, 16, 16]             512\n","             ReLU-13          [-1, 256, 16, 16]               0\n","        Dropout2d-14          [-1, 256, 16, 16]               0\n","        MaxPool2d-15            [-1, 256, 8, 8]               0\n","           Linear-16                  [-1, 128]       2,097,280\n","      BatchNorm1d-17                  [-1, 128]             256\n","           Linear-18                [-1, 16384]       2,113,536\n","      BatchNorm1d-19                [-1, 16384]          32,768\n","  ConvTranspose2d-20          [-1, 128, 16, 16]         295,040\n","      BatchNorm2d-21          [-1, 128, 16, 16]             256\n","             ReLU-22          [-1, 128, 16, 16]               0\n","        Dropout2d-23          [-1, 128, 16, 16]               0\n","  ConvTranspose2d-24           [-1, 64, 32, 32]          73,792\n","      BatchNorm2d-25           [-1, 64, 32, 32]             128\n","             ReLU-26           [-1, 64, 32, 32]               0\n","        Dropout2d-27           [-1, 64, 32, 32]               0\n","  ConvTranspose2d-28            [-1, 3, 64, 64]           1,731\n","      BatchNorm2d-29            [-1, 3, 64, 64]               6\n","          Sigmoid-30            [-1, 3, 64, 64]               0\n","================================================================\n","Total params: 4,986,505\n","Trainable params: 4,986,505\n","Non-trainable params: 0\n","----------------------------------------------------------------\n","Input size (MB): 0.05\n","Forward/backward pass size (MB): 18.41\n","Params size (MB): 19.02\n","Estimated Total Size (MB): 37.48\n","-----------------------------------
…
