…
            logits.append(outputs)\n","\n","    probs = nn.functional.softmax(torch.cat(logits), dim=-1).numpy()\n","    return probs"]},{"cell_type":"code","execution_count":null,"metadata":{"colab":{"base_uri":"https://localhost:8080/"},"executionInfo":{"elapsed":6,"status":"ok","timestamp":1731780635021,"user":{"displayName":"Алексей Птицын","userId":"11435283574921835370"},"user_tz":-180},"id":"yzwhB4K3dQOC","outputId":"97d0a216-321d-44d3-d58b-8409eaeebdf5"},"outputs":[{"name":"stdout","output_type":"stream","text":["we will classify :42\n","SimpleCnn(\n","  (conv1): Sequential(\n","    (0): Conv2d(3, 4, kernel_size=(3, 3), stride=(1, 1))\n","    (1): ReLU()\n","    (2): MaxPool2d(kernel_size=2, stride=2, padding=0, dilation=1, ceil_mode=False)\n","    (3): Dropout(p=0.5, inplace=False)\n","  )\n","  (conv2): Sequential(\n","    (0): Conv2d(4, 8, kernel_size=(3, 3), stride=(1, 1))\n","    (1): ReLU()\n","    (2): MaxPool2d(kernel_size=2, stride=2, padding=0, dilation=1, ceil_mode=False)\n","    (3): Dropout(p=0.5, inplace=False)\n","  )\n","  (conv3): Sequential(\n","    (0): Conv2d(8, 16, kernel_size=(3, 3), stride=(1, 1))\n","    (1): ReLU()\n","    (2): MaxPool2d(kernel_size=2, stride=2, padding=0, dilation=1, ceil_mode=False)\n","    (3): Dropout(p=0.5, inplace=False)\n","  )\n","  (conv4): Sequential(\n","    (0): Conv2d(16, 32, kernel_size=(3, 3), stride=(1, 1))\n","    (1): ReLU()\n","    (2): MaxPool2d(kernel_size=2, stride=2, padding=0, dilation=1, ceil_mode=False)\n","    (3): Dropout(p=0.5, inplace=False)\n","  )\n","  (conv5): Sequential(\n","    (0): Conv2d(32, 48, kernel_size=(3, 3), stride=(1, 1))\n","    (1): ReLU()\n","    (2): MaxPool2d(kernel_size=2, stride=2, padding=0, dilation=1, ceil_mode=False)\n","    (3): Dropout(p=0.5, inplace=False)\n","  )\n","  (fc1): Sequential(\n","    (0): Linear(in_features=1200, out_features=800, bias=True)\n","    (1): ReLU()\n","    (2): Dropout(p=0.5, inplace=False)\n","  )\n","  (fc2): Sequential(\n","    (0): Linear(in_features=800, out_features=600, bias=True)\n","    (1): ReLU()\n","    (2): Dropout(p=0.5, inplace=False)\n","  )\n","  (fc3): Sequential(\n","    (0): Linear(in_features=600, out_features=400, bias=True)\n","    (1): ReLU()\n","    (2): Dropout(p=0.5, inplace=False)\n","  )\n","  (fc4): Sequential(\n","    (0): Linear(in_features=400, out_features=200, bias=True)\n","    (1): ReLU()\n","  )\n","  (out): Linear(in_features=200, out_features=42, bias=True)\n",")\n"]}],"source":["n_classes = len(np.unique(train_val_labels))\n","simple_cnn = SimpleCnn(n_classes).to(DEVICE)\n","print(\"we will classify :{}\".format(n_classes))\n","print(simple_cnn)"]},{"cell_type":"markdown","metadata":{"id":"bo3UND5RdgVg"},"source":["Запустим обучение сети."]},{"cell_type":"code","execution_count":null,"metadata":{"id":"WDk
…
